Model loaded..
CLIPModelLocalisation(
  (model): CLIP(
    (visual): VisionTransformer(
      (conv1): Conv2d(3, 1024, kernel_size=(14, 14), stride=(14, 14), bias=False)
      (ln_pre): LayerNorm((1024,), eps=1e-05, elementwise_affine=True)
      (transformer): Transformer(
        (resblocks): Sequential(
          (0): ResidualAttentionBlock(
            (attn): MultiheadAttention(
              (out_proj): NonDynamicallyQuantizableLinear(in_features=1024, out_features=1024, bias=True)
            )
            (ln_1): LayerNorm((1024,), eps=1e-05, elementwise_affine=True)
            (mlp): Sequential(
              (c_fc): Linear(in_features=1024, out_features=4096, bias=True)
              (gelu): QuickGELU()
              (c_proj): Linear(in_features=4096, out_features=1024, bias=True)
            )
            (ln_2): LayerNorm((1024,), eps=1e-05, elementwise_affine=True)
          )
          (1): ResidualAttentionBlock(
            (attn): MultiheadAttention(
              (out_proj): NonDynamicallyQuantizableLinear(in_features=1024, out_features=1024, bias=True)
            )
            (ln_1): LayerNorm((1024,), eps=1e-05, elementwise_affine=True)
            (mlp): Sequential(
              (c_fc): Linear(in_features=1024, out_features=4096, bias=True)
              (gelu): QuickGELU()
              (c_proj): Linear(in_features=4096, out_features=1024, bias=True)
            )
            (ln_2): LayerNorm((1024,), eps=1e-05, elementwise_affine=True)
          )
          (2): ResidualAttentionBlock(
            (attn): MultiheadAttention(
              (out_proj): NonDynamicallyQuantizableLinear(in_features=1024, out_features=1024, bias=True)
            )
            (ln_1): LayerNorm((1024,), eps=1e-05, elementwise_affine=True)
            (mlp): Sequential(
              (c_fc): Linear(in_features=1024, out_features=4096, bias=True)
              (gelu): QuickGELU()
              (c_proj): Linear(in_features=4096, out_features=1024, bias=True)
            )
            (ln_2): LayerNorm((1024,), eps=1e-05, elementwise_affine=True)
          )
          (3): ResidualAttentionBlock(
            (attn): MultiheadAttention(
              (out_proj): NonDynamicallyQuantizableLinear(in_features=1024, out_features=1024, bias=True)
            )
            (ln_1): LayerNorm((1024,), eps=1e-05, elementwise_affine=True)
            (mlp): Sequential(
              (c_fc): Linear(in_features=1024, out_features=4096, bias=True)
              (gelu): QuickGELU()
              (c_proj): Linear(in_features=4096, out_features=1024, bias=True)
            )
            (ln_2): LayerNorm((1024,), eps=1e-05, elementwise_affine=True)
          )
          (4): ResidualAttentionBlock(
            (attn): MultiheadAttention(
              (out_proj): NonDynamicallyQuantizableLinear(in_features=1024, out_features=1024, bias=True)
            )
            (ln_1): LayerNorm((1024,), eps=1e-05, elementwise_affine=True)
            (mlp): Sequential(
              (c_fc): Linear(in_features=1024, out_features=4096, bias=True)
              (gelu): QuickGELU()
              (c_proj): Linear(in_features=4096, out_features=1024, bias=True)
            )
            (ln_2): LayerNorm((1024,), eps=1e-05, elementwise_affine=True)
          )
          (5): ResidualAttentionBlock(
            (attn): MultiheadAttention(
              (out_proj): NonDynamicallyQuantizableLinear(in_features=1024, out_features=1024, bias=True)
            )
            (ln_1): LayerNorm((1024,), eps=1e-05, elementwise_affine=True)
            (mlp): Sequential(
              (c_fc): Linear(in_features=1024, out_features=4096, bias=True)
              (gelu): QuickGELU()
              (c_proj): Linear(in_features=4096, out_features=1024, bias=True)
            )
            (ln_2): LayerNorm((1024,), eps=1e-05, elementwise_affine=True)
          )
          (6): ResidualAttentionBlock(
            (attn): MultiheadAttention(
              (out_proj): NonDynamicallyQuantizableLinear(in_features=1024, out_features=1024, bias=True)
            )
            (ln_1): LayerNorm((1024,), eps=1e-05, elementwise_affine=True)
            (mlp): Sequential(
              (c_fc): Linear(in_features=1024, out_features=4096, bias=True)
              (gelu): QuickGELU()
              (c_proj): Linear(in_features=4096, out_features=1024, bias=True)
            )
            (ln_2): LayerNorm((1024,), eps=1e-05, elementwise_affine=True)
          )
          (7): ResidualAttentionBlock(
            (attn): MultiheadAttention(
              (out_proj): NonDynamicallyQuantizableLinear(in_features=1024, out_features=1024, bias=True)
            )
            (ln_1): LayerNorm((1024,), eps=1e-05, elementwise_affine=True)
            (mlp): Sequential(
              (c_fc): Linear(in_features=1024, out_features=4096, bias=True)
              (gelu): QuickGELU()
              (c_proj): Linear(in_features=4096, out_features=1024, bias=True)
            )
            (ln_2): LayerNorm((1024,), eps=1e-05, elementwise_affine=True)
          )
          (8): ResidualAttentionBlock(
            (attn): MultiheadAttention(
              (out_proj): NonDynamicallyQuantizableLinear(in_features=1024, out_features=1024, bias=True)
            )
            (ln_1): LayerNorm((1024,), eps=1e-05, elementwise_affine=True)
            (mlp): Sequential(
              (c_fc): Linear(in_features=1024, out_features=4096, bias=True)
              (gelu): QuickGELU()
              (c_proj): Linear(in_features=4096, out_features=1024, bias=True)
            )
            (ln_2): LayerNorm((1024,), eps=1e-05, elementwise_affine=True)
          )
          (9): ResidualAttentionBlock(
            (attn): MultiheadAttention(
              (out_proj): NonDynamicallyQuantizableLinear(in_features=1024, out_features=1024, bias=True)
            )
            (ln_1): LayerNorm((1024,), eps=1e-05, elementwise_affine=True)
            (mlp): Sequential(
              (c_fc): Linear(in_features=1024, out_features=4096, bias=True)
              (gelu): QuickGELU()
              (c_proj): Linear(in_features=4096, out_features=1024, bias=True)
            )
            (ln_2): LayerNorm((1024,), eps=1e-05, elementwise_affine=True)
          )
          (10): ResidualAttentionBlock(
            (attn): MultiheadAttention(
              (out_proj): NonDynamicallyQuantizableLinear(in_features=1024, out_features=1024, bias=True)
            )
            (ln_1): LayerNorm((1024,), eps=1e-05, elementwise_affine=True)
            (mlp): Sequential(
              (c_fc): Linear(in_features=1024, out_features=4096, bias=True)
              (gelu): QuickGELU()
              (c_proj): Linear(in_features=4096, out_features=1024, bias=True)
            )
            (ln_2): LayerNorm((1024,), eps=1e-05, elementwise_affine=True)
          )
          (11): ResidualAttentionBlock(
            (attn): MultiheadAttention(
              (out_proj): NonDynamicallyQuantizableLinear(in_features=1024, out_features=1024, bias=True)
            )
            (ln_1): LayerNorm((1024,), eps=1e-05, elementwise_affine=True)
            (mlp): Sequential(
              (c_fc): Linear(in_features=1024, out_features=4096, bias=True)
              (gelu): QuickGELU()
              (c_proj): Linear(in_features=4096, out_features=1024, bias=True)
            )
            (ln_2): LayerNorm((1024,), eps=1e-05, elementwise_affine=True)
          )
          (12): ResidualAttentionBlock(
            (attn): MultiheadAttention(
              (out_proj): NonDynamicallyQuantizableLinear(in_features=1024, out_features=1024, bias=True)
            )
            (ln_1): LayerNorm((1024,), eps=1e-05, elementwise_affine=True)
            (mlp): Sequential(
              (c_fc): Linear(in_features=1024, out_features=4096, bias=True)
              (gelu): QuickGELU()
              (c_proj): Linear(in_features=4096, out_features=1024, bias=True)
            )
            (ln_2): LayerNorm((1024,), eps=1e-05, elementwise_affine=True)
          )
          (13): ResidualAttentionBlock(
            (attn): MultiheadAttention(
              (out_proj): NonDynamicallyQuantizableLinear(in_features=1024, out_features=1024, bias=True)
            )
            (ln_1): LayerNorm((1024,), eps=1e-05, elementwise_affine=True)
            (mlp): Sequential(
              (c_fc): Linear(in_features=1024, out_features=4096, bias=True)
              (gelu): QuickGELU()
              (c_proj): Linear(in_features=4096, out_features=1024, bias=True)
            )
            (ln_2): LayerNorm((1024,), eps=1e-05, elementwise_affine=True)
          )
          (14): ResidualAttentionBlock(
            (attn): MultiheadAttention(
              (out_proj): NonDynamicallyQuantizableLinear(in_features=1024, out_features=1024, bias=True)
            )
            (ln_1): LayerNorm((1024,), eps=1e-05, elementwise_affine=True)
            (mlp): Sequential(
              (c_fc): Linear(in_features=1024, out_features=4096, bias=True)
              (gelu): QuickGELU()
              (c_proj): Linear(in_features=4096, out_features=1024, bias=True)
            )
            (ln_2): LayerNorm((1024,), eps=1e-05, elementwise_affine=True)
          )
          (15): ResidualAttentionBlock(
            (attn): MultiheadAttention(
              (out_proj): NonDynamicallyQuantizableLinear(in_features=1024, out_features=1024, bias=True)
            )
            (ln_1): LayerNorm((1024,), eps=1e-05, elementwise_affine=True)
            (mlp): Sequential(
              (c_fc): Linear(in_features=1024, out_features=4096, bias=True)
              (gelu): QuickGELU()
              (c_proj): Linear(in_features=4096, out_features=1024, bias=True)
            )
            (ln_2): LayerNorm((1024,), eps=1e-05, elementwise_affine=True)
          )
          (16): ResidualAttentionBlock(
            (attn): MultiheadAttention(
              (out_proj): NonDynamicallyQuantizableLinear(in_features=1024, out_features=1024, bias=True)
            )
            (ln_1): LayerNorm((1024,), eps=1e-05, elementwise_affine=True)
            (mlp): Sequential(
              (c_fc): Linear(in_features=1024, out_features=4096, bias=True)
              (gelu): QuickGELU()
              (c_proj): Linear(in_features=4096, out_features=1024, bias=True)
            )
            (ln_2): LayerNorm((1024,), eps=1e-05, elementwise_affine=True)
          )
          (17): ResidualAttentionBlock(
            (attn): MultiheadAttention(
              (out_proj): NonDynamicallyQuantizableLinear(in_features=1024, out_features=1024, bias=True)
            )
            (ln_1): LayerNorm((1024,), eps=1e-05, elementwise_affine=True)
            (mlp): Sequential(
              (c_fc): Linear(in_features=1024, out_features=4096, bias=True)
              (gelu): QuickGELU()
              (c_proj): Linear(in_features=4096, out_features=1024, bias=True)
            )
            (ln_2): LayerNorm((1024,), eps=1e-05, elementwise_affine=True)
          )
          (18): ResidualAttentionBlock(
            (attn): MultiheadAttention(
              (out_proj): NonDynamicallyQuantizableLinear(in_features=1024, out_features=1024, bias=True)
            )
            (ln_1): LayerNorm((1024,), eps=1e-05, elementwise_affine=True)
            (mlp): Sequential(
              (c_fc): Linear(in_features=1024, out_features=4096, bias=True)
              (gelu): QuickGELU()
              (c_proj): Linear(in_features=4096, out_features=1024, bias=True)
            )
            (ln_2): LayerNorm((1024,), eps=1e-05, elementwise_affine=True)
          )
          (19): ResidualAttentionBlock(
            (attn): MultiheadAttention(
              (out_proj): NonDynamicallyQuantizableLinear(in_features=1024, out_features=1024, bias=True)
            )
            (ln_1): LayerNorm((1024,), eps=1e-05, elementwise_affine=True)
            (mlp): Sequential(
              (c_fc): Linear(in_features=1024, out_features=4096, bias=True)
              (gelu): QuickGELU()
              (c_proj): Linear(in_features=4096, out_features=1024, bias=True)
            )
            (ln_2): LayerNorm((1024,), eps=1e-05, elementwise_affine=True)
          )
          (20): ResidualAttentionBlock(
            (attn): MultiheadAttention(
              (out_proj): NonDynamicallyQuantizableLinear(in_features=1024, out_features=1024, bias=True)
            )
            (ln_1): LayerNorm((1024,), eps=1e-05, elementwise_affine=True)
            (mlp): Sequential(
              (c_fc): Linear(in_features=1024, out_features=4096, bias=True)
              (gelu): QuickGELU()
              (c_proj): Linear(in_features=4096, out_features=1024, bias=True)
            )
            (ln_2): LayerNorm((1024,), eps=1e-05, elementwise_affine=True)
          )
          (21): ResidualAttentionBlock(
            (attn): MultiheadAttention(
              (out_proj): NonDynamicallyQuantizableLinear(in_features=1024, out_features=1024, bias=True)
            )
            (ln_1): LayerNorm((1024,), eps=1e-05, elementwise_affine=True)
            (mlp): Sequential(
              (c_fc): Linear(in_features=1024, out_features=4096, bias=True)
              (gelu): QuickGELU()
              (c_proj): Linear(in_features=4096, out_features=1024, bias=True)
            )
            (ln_2): LayerNorm((1024,), eps=1e-05, elementwise_affine=True)
          )
          (22): ResidualAttentionBlock(
            (attn): MultiheadAttention(
              (out_proj): NonDynamicallyQuantizableLinear(in_features=1024, out_features=1024, bias=True)
            )
            (ln_1): LayerNorm((1024,), eps=1e-05, elementwise_affine=True)
            (mlp): Sequential(
              (c_fc): Linear(in_features=1024, out_features=4096, bias=True)
              (gelu): QuickGELU()
              (c_proj): Linear(in_features=4096, out_features=1024, bias=True)
            )
            (ln_2): LayerNorm((1024,), eps=1e-05, elementwise_affine=True)
          )
          (23): ResidualAttentionBlock(
            (attn): MultiheadAttention(
              (out_proj): NonDynamicallyQuantizableLinear(in_features=1024, out_features=1024, bias=True)
            )
            (ln_1): LayerNorm((1024,), eps=1e-05, elementwise_affine=True)
            (mlp): Sequential(
              (c_fc): Linear(in_features=1024, out_features=4096, bias=True)
              (gelu): QuickGELU()
              (c_proj): Linear(in_features=4096, out_features=1024, bias=True)
            )
            (ln_2): LayerNorm((1024,), eps=1e-05, elementwise_affine=True)
          )
        )
      )
      (ln_post): LayerNorm((1024,), eps=1e-05, elementwise_affine=True)
    )
    (transformer): Transformer(
      (resblocks): Sequential(
        (0): ResidualAttentionBlock(
          (attn): MultiheadAttention(
            (out_proj): NonDynamicallyQuantizableLinear(in_features=768, out_features=768, bias=True)
          )
          (ln_1): LayerNorm((768,), eps=1e-05, elementwise_affine=True)
          (mlp): Sequential(
            (c_fc): Linear(in_features=768, out_features=3072, bias=True)
            (gelu): QuickGELU()
            (c_proj): Linear(in_features=3072, out_features=768, bias=True)
          )
          (ln_2): LayerNorm((768,), eps=1e-05, elementwise_affine=True)
        )
        (1): ResidualAttentionBlock(
          (attn): MultiheadAttention(
            (out_proj): NonDynamicallyQuantizableLinear(in_features=768, out_features=768, bias=True)
          )
          (ln_1): LayerNorm((768,), eps=1e-05, elementwise_affine=True)
          (mlp): Sequential(
            (c_fc): Linear(in_features=768, out_features=3072, bias=True)
            (gelu): QuickGELU()
            (c_proj): Linear(in_features=3072, out_features=768, bias=True)
          )
          (ln_2): LayerNorm((768,), eps=1e-05, elementwise_affine=True)
        )
        (2): ResidualAttentionBlock(
          (attn): MultiheadAttention(
            (out_proj): NonDynamicallyQuantizableLinear(in_features=768, out_features=768, bias=True)
          )
          (ln_1): LayerNorm((768,), eps=1e-05, elementwise_affine=True)
          (mlp): Sequential(
            (c_fc): Linear(in_features=768, out_features=3072, bias=True)
            (gelu): QuickGELU()
            (c_proj): Linear(in_features=3072, out_features=768, bias=True)
          )
          (ln_2): LayerNorm((768,), eps=1e-05, elementwise_affine=True)
        )
        (3): ResidualAttentionBlock(
          (attn): MultiheadAttention(
            (out_proj): NonDynamicallyQuantizableLinear(in_features=768, out_features=768, bias=True)
          )
          (ln_1): LayerNorm((768,), eps=1e-05, elementwise_affine=True)
          (mlp): Sequential(
            (c_fc): Linear(in_features=768, out_features=3072, bias=True)
            (gelu): QuickGELU()
            (c_proj): Linear(in_features=3072, out_features=768, bias=True)
          )
          (ln_2): LayerNorm((768,), eps=1e-05, elementwise_affine=True)
        )
        (4): ResidualAttentionBlock(
          (attn): MultiheadAttention(
            (out_proj): NonDynamicallyQuantizableLinear(in_features=768, out_features=768, bias=True)
          )
          (ln_1): LayerNorm((768,), eps=1e-05, elementwise_affine=True)
          (mlp): Sequential(
            (c_fc): Linear(in_features=768, out_features=3072, bias=True)
            (gelu): QuickGELU()
            (c_proj): Linear(in_features=3072, out_features=768, bias=True)
          )
          (ln_2): LayerNorm((768,), eps=1e-05, elementwise_affine=True)
        )
        (5): ResidualAttentionBlock(
          (attn): MultiheadAttention(
            (out_proj): NonDynamicallyQuantizableLinear(in_features=768, out_features=768, bias=True)
          )
          (ln_1): LayerNorm((768,), eps=1e-05, elementwise_affine=True)
          (mlp): Sequential(
            (c_fc): Linear(in_features=768, out_features=3072, bias=True)
            (gelu): QuickGELU()
            (c_proj): Linear(in_features=3072, out_features=768, bias=True)
          )
          (ln_2): LayerNorm((768,), eps=1e-05, elementwise_affine=True)
        )
        (6): ResidualAttentionBlock(
          (attn): MultiheadAttention(
            (out_proj): NonDynamicallyQuantizableLinear(in_features=768, out_features=768, bias=True)
          )
          (ln_1): LayerNorm((768,), eps=1e-05, elementwise_affine=True)
          (mlp): Sequential(
            (c_fc): Linear(in_features=768, out_features=3072, bias=True)
            (gelu): QuickGELU()
            (c_proj): Linear(in_features=3072, out_features=768, bias=True)
          )
          (ln_2): LayerNorm((768,), eps=1e-05, elementwise_affine=True)
        )
        (7): ResidualAttentionBlock(
          (attn): MultiheadAttention(
            (out_proj): NonDynamicallyQuantizableLinear(in_features=768, out_features=768, bias=True)
          )
          (ln_1): LayerNorm((768,), eps=1e-05, elementwise_affine=True)
          (mlp): Sequential(
            (c_fc): Linear(in_features=768, out_features=3072, bias=True)
            (gelu): QuickGELU()
            (c_proj): Linear(in_features=3072, out_features=768, bias=True)
          )
          (ln_2): LayerNorm((768,), eps=1e-05, elementwise_affine=True)
        )
        (8): ResidualAttentionBlock(
          (attn): MultiheadAttention(
            (out_proj): NonDynamicallyQuantizableLinear(in_features=768, out_features=768, bias=True)
          )
          (ln_1): LayerNorm((768,), eps=1e-05, elementwise_affine=True)
          (mlp): Sequential(
            (c_fc): Linear(in_features=768, out_features=3072, bias=True)
            (gelu): QuickGELU()
            (c_proj): Linear(in_features=3072, out_features=768, bias=True)
          )
          (ln_2): LayerNorm((768,), eps=1e-05, elementwise_affine=True)
        )
        (9): ResidualAttentionBlock(
          (attn): MultiheadAttention(
            (out_proj): NonDynamicallyQuantizableLinear(in_features=768, out_features=768, bias=True)
          )
          (ln_1): LayerNorm((768,), eps=1e-05, elementwise_affine=True)
          (mlp): Sequential(
            (c_fc): Linear(in_features=768, out_features=3072, bias=True)
            (gelu): QuickGELU()
            (c_proj): Linear(in_features=3072, out_features=768, bias=True)
          )
          (ln_2): LayerNorm((768,), eps=1e-05, elementwise_affine=True)
        )
        (10): ResidualAttentionBlock(
          (attn): MultiheadAttention(
            (out_proj): NonDynamicallyQuantizableLinear(in_features=768, out_features=768, bias=True)
          )
          (ln_1): LayerNorm((768,), eps=1e-05, elementwise_affine=True)
          (mlp): Sequential(
            (c_fc): Linear(in_features=768, out_features=3072, bias=True)
            (gelu): QuickGELU()
            (c_proj): Linear(in_features=3072, out_features=768, bias=True)
          )
          (ln_2): LayerNorm((768,), eps=1e-05, elementwise_affine=True)
        )
        (11): ResidualAttentionBlock(
          (attn): MultiheadAttention(
            (out_proj): NonDynamicallyQuantizableLinear(in_features=768, out_features=768, bias=True)
          )
          (ln_1): LayerNorm((768,), eps=1e-05, elementwise_affine=True)
          (mlp): Sequential(
            (c_fc): Linear(in_features=768, out_features=3072, bias=True)
            (gelu): QuickGELU()
            (c_proj): Linear(in_features=3072, out_features=768, bias=True)
          )
          (ln_2): LayerNorm((768,), eps=1e-05, elementwise_affine=True)
        )
      )
    )
    (token_embedding): Embedding(49408, 768)
    (ln_final): LayerNorm((768,), eps=1e-05, elementwise_affine=True)
  )
  (fc): Sequential(
    (0): Conv2d(1024, 512, kernel_size=(5, 5), stride=(1, 1), padding=(2, 2))
    (1): BatchNorm2d(512, eps=1e-05, momentum=0.1, affine=True, track_running_stats=True)
    (2): ReLU()
    (3): Conv2d(512, 512, kernel_size=(5, 5), stride=(1, 1), padding=(2, 2))
    (4): BatchNorm2d(512, eps=1e-05, momentum=0.1, affine=True, track_running_stats=True)
    (5): ReLU()
    (6): Conv2d(512, 512, kernel_size=(5, 5), stride=(1, 1), padding=(2, 2))
    (7): BatchNorm2d(512, eps=1e-05, momentum=0.1, affine=True, track_running_stats=True)
    (8): ReLU()
    (9): Conv2d(512, 512, kernel_size=(5, 5), stride=(1, 1), padding=(2, 2))
    (10): BatchNorm2d(512, eps=1e-05, momentum=0.1, affine=True, track_running_stats=True)
    (11): ReLU()
    (12): Conv2d(512, 512, kernel_size=(5, 5), stride=(1, 1), padding=(2, 2))
    (13): BatchNorm2d(512, eps=1e-05, momentum=0.1, affine=True, track_running_stats=True)
    (14): ReLU()
    (15): Upsample(scale_factor=2.0, mode='bilinear')
    (16): Conv2d(512, 256, kernel_size=(5, 5), stride=(1, 1), padding=(2, 2))
    (17): BatchNorm2d(256, eps=1e-05, momentum=0.1, affine=True, track_running_stats=True)
    (18): ReLU()
    (19): Conv2d(256, 256, kernel_size=(5, 5), stride=(1, 1), padding=(2, 2))
    (20): BatchNorm2d(256, eps=1e-05, momentum=0.1, affine=True, track_running_stats=True)
    (21): ReLU()
    (22): Conv2d(256, 256, kernel_size=(5, 5), stride=(1, 1), padding=(2, 2))
    (23): BatchNorm2d(256, eps=1e-05, momentum=0.1, affine=True, track_running_stats=True)
    (24): ReLU()
    (25): Conv2d(256, 256, kernel_size=(5, 5), stride=(1, 1), padding=(2, 2))
    (26): BatchNorm2d(256, eps=1e-05, momentum=0.1, affine=True, track_running_stats=True)
    (27): ReLU()
    (28): Conv2d(256, 256, kernel_size=(5, 5), stride=(1, 1), padding=(2, 2))
    (29): BatchNorm2d(256, eps=1e-05, momentum=0.1, affine=True, track_running_stats=True)
    (30): ReLU()
    (31): Upsample(scale_factor=2.0, mode='bilinear')
    (32): Conv2d(256, 128, kernel_size=(5, 5), stride=(1, 1), padding=(2, 2))
    (33): BatchNorm2d(128, eps=1e-05, momentum=0.1, affine=True, track_running_stats=True)
    (34): ReLU()
    (35): Conv2d(128, 128, kernel_size=(5, 5), stride=(1, 1), padding=(2, 2))
    (36): BatchNorm2d(128, eps=1e-05, momentum=0.1, affine=True, track_running_stats=True)
    (37): ReLU()
    (38): Conv2d(128, 128, kernel_size=(5, 5), stride=(1, 1), padding=(2, 2))
    (39): BatchNorm2d(128, eps=1e-05, momentum=0.1, affine=True, track_running_stats=True)
    (40): ReLU()
    (41): Conv2d(128, 128, kernel_size=(5, 5), stride=(1, 1), padding=(2, 2))
    (42): BatchNorm2d(128, eps=1e-05, momentum=0.1, affine=True, track_running_stats=True)
    (43): ReLU()
    (44): Conv2d(128, 128, kernel_size=(5, 5), stride=(1, 1), padding=(2, 2))
    (45): BatchNorm2d(128, eps=1e-05, momentum=0.1, affine=True, track_running_stats=True)
    (46): ReLU()
    (47): Upsample(scale_factor=2.0, mode='bilinear')
    (48): Conv2d(128, 64, kernel_size=(5, 5), stride=(1, 1), padding=(2, 2))
    (49): BatchNorm2d(64, eps=1e-05, momentum=0.1, affine=True, track_running_stats=True)
    (50): ReLU()
    (51): Conv2d(64, 64, kernel_size=(5, 5), stride=(1, 1), padding=(2, 2))
    (52): BatchNorm2d(64, eps=1e-05, momentum=0.1, affine=True, track_running_stats=True)
    (53): ReLU()
    (54): Conv2d(64, 64, kernel_size=(5, 5), stride=(1, 1), padding=(2, 2))
    (55): BatchNorm2d(64, eps=1e-05, momentum=0.1, affine=True, track_running_stats=True)
    (56): ReLU()
    (57): Conv2d(64, 64, kernel_size=(5, 5), stride=(1, 1), padding=(2, 2))
    (58): BatchNorm2d(64, eps=1e-05, momentum=0.1, affine=True, track_running_stats=True)
    (59): ReLU()
    (60): Conv2d(64, 64, kernel_size=(5, 5), stride=(1, 1), padding=(2, 2))
    (61): BatchNorm2d(64, eps=1e-05, momentum=0.1, affine=True, track_running_stats=True)
    (62): ReLU()
    (63): Upsample(scale_factor=2.0, mode='bilinear')
    (64): Conv2d(64, 1, kernel_size=(5, 5), stride=(1, 1), padding=(2, 2))
  )
)


(0) Layer: Conv2d, Output shape: torch.Size([64, 512, 16, 16])
(1) Layer: BatchNorm2d, Output shape: torch.Size([64, 512, 16, 16])
(2) Layer: ReLU, Output shape: torch.Size([64, 512, 16, 16])
(3) Layer: Conv2d, Output shape: torch.Size([64, 512, 16, 16])
(4) Layer: BatchNorm2d, Output shape: torch.Size([64, 512, 16, 16])
(5) Layer: ReLU, Output shape: torch.Size([64, 512, 16, 16])
…
